data/models/vad_v1.tflite (tflite, 79200 bytes, 11 tensors)

dense/bias f4 [2]
0	0xbea6ab3c	-0.32552516
1	0x3ea6ab3a	0.3255251

conv1d_2/bias f4 [32]
0	0xbdb58235	-0.08862726
1	0x3e86a88a	0.2630046
2	0xbcf16264	-0.029465862
3	0xbddde094	-0.108338505
4	0x3ee02183	0.43775567
5	0x3df1cd4f	0.11806738
6	0x3e860f0c	0.26183355
7	0x3daf6a25	0.08565167
8	0xbe3ef38e	-0.18647596
9	0xbdcccfda	-0.10000582
10	0x3daa99c3	0.08330109
11	0x3e912e1b	0.28355488
12	0x3ee1bbe5	0.44088665
13	0xbe4776f8	-0.19478977
14	0xbe33521a	-0.17511788
15	0xbe8e8244	-0.2783376
16	0x3edc57df	0.4303579
17	0x3d151796	0.036399446
18	0x3cd14c96	0.025549214
19	0x3eefef1f	0.46862122
20	0x3e680521	0.22658207
21	0xbe84dad4	-0.25948203
22	0x3e5f20a4	0.21789795
23	0x3ea2d0fc	0.31800067
24	0x3e0b248b	0.13588159
25	0x3ec9a975	0.39387098
26	0x3e094c83	0.13408093
27	0x3b14cdc7	0.002270566
28	0x3e3f765c	0.18697494
29	0xbe00e80d	-0.1258852
30	0x3eab1467	0.33414003
31	0xbe5d2452	-0.21595886

conv1d_1/bias f4 [32]
0	0xbd6d2d5c	-0.057904586
1	0x3e21454f	0.15749095
2	0xbcc199e5	-0.023632953
3	0xbec1474e	-0.37749714
4	0x3dc12076	0.094300196
5	0x3dc7706f	0.09738242
6	0xbe9e1219	-0.30873182
7	0xbec52de1	-0.38511565
8	0xbdd12848	-0.10212761
9	0xbdfec71a	-0.12440319
10	0x3e38fa10	0.18064141
11	0x3e89fe26	0.26951712
12	0xbdbbf048	-0.091766894
13	0x3c2ca215	0.01053669
14	0x3e73e59b	0.23818056
15	0xbe528dbe	-0.20561883
16	0x3dea85b4	0.11451283
17	0x3ecc4640	0.39897346
18	0x3de6c382	0.11267759
19	0x3cedab5e	0.029012378
20	0xbec3a81a	-0.3821419
21	0xbe16fcd2	-0.14744881
22	0xbef1ba1c	-0.47212303
23	0x3e439371	0.19099213
24	0xbdf96dc0	-0.12179136
25	0xbc670204	-0.014099602
26	0xbe90d358	-0.28286242
27	0x3ea136c1	0.31487086
28	0xbc823ff2	-0.015899632
29	0x3e8ecef4	0.27892268
30	0x3de68425	0.11255673
31	0xbcb5c454	-0.022188343

conv1d/bias f4 [32]
0	0xbd12df31	-0.035857383
1	0x3e086c8a	0.13322654
2	0xbd14b069	-0.03630105
3	0xbea27172	-0.31727177
4	0xbe9acf40	-0.30236244
5	0xbc8df84b	-0.01733031
6	0xbe259ad8	-0.1617235
7	0xbed60756	-0.41802472
8	0xbd910ad6	-0.07082145
9	0x3e27e326	0.16395244
10	0xbe12ca0f	-0.14334892
11	0xbefe5278	-0.49672294
12	0x3e83c2bf	0.25734517
13	0xbde1086d	-0.10987935
14	0x3da968a4	0.08271912
15	0x3e87e039	0.26538256
16	0xbe864dea	-0.2623132
17	0x3e84e010	0.25952196
18	0xbf05aefb	-0.52220124
19	0xbf05a009	-0.5219732
20	0x3e7ab959	0.24484767
21	0x3e3140cf	0.17309879
22	0xbe8b6a47	-0.2722952
23	0xbe5c5e54	-0.21520358
24	0xbe2f2609	-0.17104353
25	0xbed56959	-0.41681936
26	0xbe417aff	-0.18894576
27	0xbf1b0a0a	-0.60562193
28	0xbe5b85d5	-0.21437772
29	0xbf06bc85	-0.5263141
30	0xbec70afd	-0.3887557
31	0xbed9cb27	-0.42537805

model/tf.signal.stft/stft/hann_window/sub_2 f4 [400]
0	0x00000000	0.0
1	0x38816000	6.169081e-05
2	0x39815c00	0.00024673343
3	0x3a118200	0.00055506825
4	0x3a815200	0.0009866357
5	0x3aca0700	0.0015413463
6	0x3b116d00	0.0022190213
7	0x3b45e300	0.0030195117
8	0x3b813140	0.0039426386
9	0x3ba373c0	0.0049881637
10	0x3bc9b6c0	0.0061558187
11	0x3bf3f800	0.0074453354
12	0x3c111a60	0.008856386
13	0x3c2a34e0	0.010388583
14	0x3c454a40	0.012041628
15	0x3c625880	0.013815045
16	0x3c80aef0	0.015708417
17	0x3c912c40	0.017721295
18	0x3ca2a310	0.019853145
19	0x3cb51260	0.022103488
20	0x3cc878f0	0.02447173
21	0x3cdcd5a0	0.026957333
22	0x3cf22700	0.029559612
23	0x3d0435e8	0.03227797
24	0x3d0fd158	0.035111755
25	0x3d1be510	0.038060248
26	0x3d287040	0.041122675
27	0x3d357230	0.04429835
28	0x3d42ea08	0.04758647
29	0x3d50d6f0	0.05098623
30	0x3d5f37f8	0.054496735
31	0x3d6e0c48	0.05811718
32	0x3d7d52f0	0.061846673
33	0x3d868578	0.06568426
34	0x3d8e99a8	0.06962901
35	0x3d96e580	0.073679924
36	0x3d9f6880	0.07783604
37	0x3da82220	0.08209634
38	0x3db111c8	0.0864597
39	0x3dba36f8	0.09092516
40	0x3dc39110	0.09549153
41	0x3dcd1f78	0.10015768
42	0x3dd6e19c	0.1049225
43	0x3de0d6dc	0.10978481
44	0x3deafe98	0.11474341
45	0x3df55828	0.11979705
46	0x3dffe2e0	0.12494445
47	0x3e054f14	0.13018447
48	0x3e0ac4a0	0.13551569
49	0x3e1051c2	0.14093688
50	0x3e15f61c	0.14644665
51	0x3e1bb154	0.15204364
52	0x3e21830c	0.15772647
53	0x3e276ae8	0.16349375
54	0x3e2d688a	0.1693441
55	0x3e337b8c	0.17527598
56	0x3e39a392	0.18128803
57	0x3e3fe032	0.18737867
58	0x3e46310c	0.19354647
59	0x3e4c95ba	0.19978991
60	0x3e530dd0	0.20610738
61	0x3e5998ea	0.21249738
62	0x3e60369e	0.21895835
63	0x3e66e67c	0.2254886
64	0x3e6da81e	0.23208663
65	0x3e747b10	0.2387507
66	0x3e7b5eee	0.24547932
67	0x3e81299e	0.25227064
68	0x3e84abcc	0.2591232
69	0x3e8835c0	0.26603508
70	0x3e8bc748	0.27300477
71	0x3e8f6025	0.2800304
72	0x3e930020	0.28711033
73	0x3e96a6fe	0.2942428
74	0x3e9a5484	0.30142605
75	0x3e9e0875	0.30865827
76	0x3ea1c297	0.31593773
77	0x3ea582ac	0.32326257
78	0x3ea94879	0.33063105
79	0x3ead13c0	0.3380413
80	0x3eb0e444	0.34549153
81	0x3eb4b9c6	0.35297984
82	0x3eb8940a	0.36050445
83	0x3ebc72d2	0.3680635
84	0x3ec055dd	0.37565508
85	0x3ec43cec	0.3832773
86	0x3ec827c5	0.39092842
87	0x3ecc1623	0.3986064
88	0x3ed007c9	0.4063094
89	0x3ed3fc74	0.41403544
90	0x3ed7f3eb	0.42178282
91	0x3edbede7	0.42954943
92	0x3edfea29	0.43733338
93	0x3ee3e874	0.44513285
94	0x3ee7e887	0.45294592
95	0x3eebea1d	0.46077052
96	0x3eefecf6	0.46860474
97	0x3ef3f0d5	0.47644678
98	0x3ef7f579	0.48429468
99	0x3efbfa9c	0.49214637
100	0x3f000000	0.5
101	0x3f0202b3	0.5078537
102	0x3f040546	0.51570547
103	0x3f060796	0.52355325
104	0x3f080986	0.5313953
105	0x3f0a0af3	0.5392296
106	0x3f0c0bbd	0.5470541
107	0x3f0e0bc7	0.5548672
108	0x3f100aec	0.56266665
109	0x3f12090d	0.5704506
110	0x3f14060b	0.5782172
111	0x3f1601c7	0.5859646
112	0x3f17fc1d	0.5936907
113	0x3f19f4ef	0.60139364
114	0x3f1bec1e	0.6090716
115	0x3f1de18b	0.61672276
116	0x3f1fd512	0.62434494
117	0x3f21c698	0.63193655
118	0x3f23b5fb	0.63949555
119	0x3f25a31e	0.6470202
120	0x3f278ddf	0.65450853
121	0x3f297620	0.6619587
122	0x3f2b5bc4	0.669369
123	0x3f2d3eaa	0.6767374
124	0x3f2f1eb5	0.6840623
125	0x3f30fbc6	0.69134176
126	0x3f32d5be	0.69857395
127	0x3f34ac80	0.70575714
128	0x3f367ff0	0.7128897
129	0x3f384fee	0.71996963
130	0x3f3a1c5b	0.72699517
131	0x3f3be520	0.7339649
132	0x3f3daa1c	0.7408769
133	0x3f3f6b32	0.7477294
134	0x3f412844	0.75452065
135	0x3f42e13d	0.76124936
136	0x3f4495fa	0.76791346
137	0x3f464661	0.7745114
138	0x3f47f258	0.7810416
139	0x3f4999c7	0.7875027
140	0x3f4b3c8e	0.79389274
141	0x3f4cda92	0.8002101
142	0x3f4e73bd	0.8064535
143	0x3f5007f5	0.8126214
144	0x3f51971c	0.818712
145	0x3f53211d	0.824724
146	0x3f54a5de	0.83065593
147	0x3f562548	0.83650637
148	0x3f579f3d	0.84227353
149	0x3f5913ac	0.8479564
150	0x3f5a8279	0.85355335
151	0x3f5beb90	0.85906315
152	0x3f5d4ed8	0.8644843
153	0x3f5eac3c	0.8698156
154	0x3f6003a4	0.87505555
155	0x3f6154fc	0.880203
156	0x3f62a02e	0.88525665
157	0x3f63e525	0.8902152
158	0x3f6523cd	0.8950775
159	0x3f665c12	0.8998424
160	0x3f678dde	0.9045085
161	0x3f68b922	0.9090749
162	0x3f69ddc7	0.9135403
163	0x3f6afbbc	0.91790366
164	0x3f6c12f0	0.92216396
165	0x3f6d2350	0.9263201
166	0x3f6e2ccc	0.93037105
167	0x3f6f2f52	0.9343158
168	0x3f702ad2	0.9381534
169	0x3f711f3c	0.94188285
170	0x3f720c80	0.94550323
171	0x3f72f291	0.94901377
172	0x3f73d160	0.95241356
173	0x3f74a8de	0.9557017
174	0x3f7578fc	0.9588773
175	0x3f7641b0	0.9619398
176	0x3f7702eb	0.9648883
177	0x3f77bca1	0.967722
178	0x3f786ec8	0.9704404
179	0x3f791953	0.97304267
180	0x3f79bc39	0.9755283
181	0x3f7a576e	0.9778966
182	0x3f7aeae8	0.9801469
183	0x3f7b769e	0.9822787
184	0x3f7bfa88	0.98429155
185	0x3f7c769e	0.98618495
186	0x3f7cead7	0.9879584
187	0x3f7d572c	0.9896114
188	0x3f7dbb97	0.99114364
189	0x3f7e1810	0.99255466
190	0x3f7e6c92	0.99384415
191	0x3f7eb918	0.9950118
192	0x3f7efd9e	0.9960574
193	0x3f7f3a1d	0.9969805
194	0x3f7f6e93	0.997781
195	0x3f7f9afd	0.9984587
196	0x3f7fbf57	0.99901336
197	0x3f7fdba0	0.99944496
198	0x3f7fefd4	0.99975324
199	0x3f7ffbf5	0.9999383
200	0x3f800000	1.0
201	0x3f7ffbf5	0.9999383
202	0x3f7fefd4	0.99975324
203	0x3f7fdba0	0.99944496
204	0x3f7fbf57	0.99901336
205	0x3f7f9afd	0.9984587
206	0x3f7f6e93	0.997781
207	0x3f7f3a1c	0.9969804
208	0x3f7efd9d	0.99605733
209	0x3f7eb918	0.9950118
210	0x3f7e6c92	0.99384415
211	0x3f7e1810	0.99255466
212	0x3f7dbb97	0.99114364
213	0x3f7d572c	0.9896114
214	0x3f7cead7	0.9879584
215	0x3f7c769e	0.98618495
216	0x3f7bfa88	0.98429155
217	0x3f7b769e	0.9822787
218	0x3f7aeae8	0.9801469
219	0x3f7a576d	0.9778965
220	0x3f79bc38	0.97552824
221	0x3f791953	0.97304267
222	0x3f786ec8	0.9704404
223	0x3f77bca0	0.96772194
224	0x3f7702ea	0.9648882
225	0x3f7641af	0.96193975
226	0x3f7578fc	0.9588773
227	0x3f74a8dd	0.95570165
228	0x3f73d160	0.95241356
229	0x3f72f291	0.94901377
230	0x3f720c80	0.94550323
231	0x3f711f3a	0.9418827
232	0x3f702ad1	0.9381533
233	0x3f6f2f51	0.93431574
234	0x3f6e2ccb	0.930371
235	0x3f6d2350	0.9263201
236	0x3f6c12f0	0.92216396
237	0x3f6afbbc	0.91790366
238	0x3f69ddc5	0.9135402
239	0x3f68b922	0.9090749
240	0x3f678dde	0.9045085
241	0x3f665c10	0.89984226
242	0x3f6523cc	0.89507747
243	0x3f63e524	0.89021516
244	0x3f62a02d	0.8852566
245	0x3f6154fb	0.88020295
246	0x3f6003a4	0.87505555
247	0x3f5eac3c	0.8698156
248	0x3f5d4ed7	0.86448425
249	0x3f5beb8f	0.8590631
250	0x3f5a8279	0.85355335
251	0x3f5913aa	0.8479563
252	0x3f579f3c	0.8422735
253	0x3f562546	0.83650625
254	0x3f54a5de	0.83065593
255	0x3f53211c	0.82472396

model/tf.tensordot/Tensordot/MatMul i1 [40, 257] scale=0.007865107 zero_point=0
0	0x00	0.0
1	0x00	0.0
2	0x2b	0.3381996
3	0x66	0.8022409
4	0x5f	0.7471851
5	0x27	0.30673915
6	0x00	0.0
7	0x00	0.0
8	0x00	0.0
9	0x00	0.0
10	0x00	0.0
11	0x00	0.0
12	0x00	0.0
13	0x00	0.0
14	0x00	0.0
15	0x00	0.0
16	0x00	0.0
17	0x00	0.0
18	0x00	0.0
19	0x00	0.0
20	0x00	0.0
21	0x00	0.0
22	0x00	0.0
23	0x00	0.0
24	0x00	0.0
25	0x00	0.0
26	0x00	0.0
27	0x00	0.0
28	0x00	0.0
29	0x00	0.0
30	0x00	0.0
31	0x00	0.0
32	0x00	0.0
33	0x00	0.0
34	0x00	0.0
35	0x00	0.0
36	0x00	0.0
37	0x00	0.0
38	0x00	0.0
39	0x00	0.0
40	0x00	0.0
41	0x00	0.0
42	0x00	0.0
43	0x00	0.0
44	0x00	0.0
45	0x00	0.0
46	0x00	0.0
47	0x00	0.0
48	0x00	0.0
49	0x00	0.0
50	0x00	0.0
51	0x00	0.0
52	0x00	0.0
53	0x00	0.0
54	0x00	0.0
55	0x00	0.0
56	0x00	0.0
57	0x00	0.0
58	0x00	0.0
59	0x00	0.0
60	0x00	0.0
61	0x00	0.0
62	0x00	0.0
63	0x00	0.0
64	0x00	0.0
65	0x00	0.0
66	0x00	0.0
67	0x00	0.0
68	0x00	0.0
69	0x00	0.0
70	0x00	0.0
71	0x00	0.0
72	0x00	0.0
73	0x00	0.0
74	0x00	0.0
75	0x00	0.0
76	0x00	0.0
77	0x00	0.0
78	0x00	0.0
79	0x00	0.0
80	0x00	0.0
81	0x00	0.0
82	0x00	0.0
83	0x00	0.0
84	0x00	0.0
85	0x00	0.0
86	0x00	0.0
87	0x00	0.0
88	0x00	0.0
89	0x00	0.0
90	0x00	0.0
91	0x00	0.0
92	0x00	0.0
93	0x00	0.0
94	0x00	0.0
95	0x00	0.0
96	0x00	0.0
97	0x00	0.0
98	0x00	0.0
99	0x00	0.0
100	0x00	0.0
101	0x00	0.0
102	0x00	0.0
103	0x00	0.0
104	0x00	0.0
105	0x00	0.0
106	0x00	0.0
107	0x00	0.0
108	0x00	0.0
109	0x00	0.0
110	0x00	0.0
111	0x00	0.0
112	0x00	0.0
113	0x00	0.0
114	0x00	0.0
115	0x00	0.0
116	0x00	0.0
117	0x00	0.0
118	0x00	0.0
119	0x00	0.0
120	0x00	0.0
121	0x00	0.0
122	0x00	0.0
123	0x00	0.0
124	0x00	0.0
125	0x00	0.0
126	0x00	0.0
127	0x00	0.0
128	0x00	0.0
129	0x00	0.0
130	0x00	0.0
131	0x00	0.0
132	0x00	0.0
133	0x00	0.0
134	0x00	0.0
135	0x00	0.0
136	0x00	0.0
137	0x00	0.0
138	0x00	0.0
139	0x00	0.0
140	0x00	0.0
141	0x00	0.0
142	0x00	0.0
143	0x00	0.0
144	0x00	0.0
145	0x00	0.0
146	0x00	0.0
147	0x00	0.0
148	0x00	0.0
149	0x00	0.0
150	0x00	0.0
151	0x00	0.0
152	0x00	0.0
153	0x00	0.0
154	0x00	0.0
155	0x00	0.0
156	0x00	0.0
157	0x00	0.0
158	0x00	0.0
159	0x00	0.0
160	0x00	0.0
161	0x00	0.0
162	0x00	0.0
163	0x00	0.0
164	0x00	0.0
165	0x00	0.0
166	0x00	0.0
167	0x00	0.0
168	0x00	0.0
169	0x00	0.0
170	0x00	0.0
171	0x00	0.0
172	0x00	0.0
173	0x00	0.0
174	0x00	0.0
175	0x00	0.0
176	0x00	0.0
177	0x00	0.0
178	0x00	0.0
179	0x00	0.0
180	0x00	0.0
181	0x00	0.0
182	0x00	0.0
183	0x00	0.0
184	0x00	0.0
185	0x00	0.0
186	0x00	0.0
187	0x00	0.0
188	0x00	0.0
189	0x00	0.0
190	0x00	0.0
191	0x00	0.0
192	0x00	0.0
193	0x00	0.0
194	0x00	0.0
195	0x00	0.0
196	0x00	0.0
197	0x00	0.0
198	0x00	0.0
199	0x00	0.0
200	0x00	0.0
201	0x00	0.0
202	0x00	0.0
203	0x00	0.0
204	0x00	0.0
205	0x00	0.0
206	0x00	0.0
207	0x00	0.0
208	0x00	0.0
209	0x00	0.0
210	0x00	0.0
211	0x00	0.0
212	0x00	0.0
213	0x00	0.0
214	0x00	0.0
215	0x00	0.0
216	0x00	0.0
217	0x00	0.0
218	0x00	0.0
219	0x00	0.0
220	0x00	0.0
221	0x00	0.0
222	0x00	0.0
223	0x00	0.0
224	0x00	0.0
225	0x00	0.0
226	0x00	0.0
227	0x00	0.0
228	0x00	0.0
229	0x00	0.0
230	0x00	0.0
231	0x00	0.0
232	0x00	0.0
233	0x00	0.0
234	0x00	0.0
235	0x00	0.0
236	0x00	0.0
237	0x00	0.0
238	0x00	0.0
239	0x00	0.0
240	0x00	0.0
241	0x00	0.0
242	0x00	0.0
243	0x00	0.0
244	0x00	0.0
245	0x00	0.0
246	0x00	0.0
247	0x00	0.0
248	0x00	0.0
249	0x00	0.0
250	0x00	0.0
251	0x00	0.0
252	0x00	0.0
253	0x00	0.0
254	0x00	0.0
255	0x00	0.0

model/dense/MatMul f4 [2, 192]
0	0xbdbcccd7	-0.092187576
1	0xbc2240d5	-0.0099031525
2	0x3d8fc30b	0.07019623
3	0x3dcf6cf5	0.10128204
4	0xbe0dded8	-0.1385454
5	0x3e2210f3	0.15826778
6	0x3ce8c1ca	0.028412718
7	0xbdb48bd0	-0.088157296
8	0x3de74c7c	0.11293885
9	0xbc4c93f2	-0.012486445
10	0xbdc5a5b2	-0.096507445
11	0x3c5c400b	0.013443003
12	0xbcce8963	-0.025211995
13	0x3d31c7d8	0.043403476
14	0x3e4bf072	0.19915941
15	0x3c1f7d95	0.009734531
16	0x3de51130	0.11184919
17	0x3b7b8577	0.0038379112
18	0xbe188f57	-0.1489843
19	0xbde5de1e	-0.11224006
20	0xbdfa57fe	-0.122238144
21	0xbc43d133	-0.011951732
22	0xbd61807d	-0.055054177
23	0xbe25804a	-0.1616222
24	0x3d41b1ed	0.047288824
25	0x3ab209a0	0.0013583191
26	0x3da41ff9	0.08013911
27	0x3da83ded	0.082149364
28	0x3d9b5fae	0.07586609
29	0x3e200507	0.15626918
30	0xbd81c15f	-0.06335711
31	0x3c7096d2	0.014684396
32	0x3ce3b717	0.027797265
33	0xbb5b101b	-0.0033426348
34	0x3d900b28	0.07033378
35	0x3d7a9ba7	0.061183598
36	0x3cd868c3	0.026417142
37	0x3e063ca6	0.13109073
38	0x3dcb35ce	0.09922372
39	0x3ca7a128	0.020462587
40	0xbac3093c	-0.0014880071
41	0x3e0ca7d0	0.1373589
42	0xbd85b0c8	-0.06527859
43	0x3d4511c1	0.048112635
44	0xb92a1510	-0.0001622031
45	0x3d53c9d2	0.051706143
46	0x3e1cf3ca	0.15327373
47	0x3c90e23b	0.017686
48	0xbda027cd	-0.078200914
49	0xbd737e39	-0.059446547
50	0xbd345f7a	-0.044036366
51	0x3e1398e6	0.14413795
52	0x3bf333c8	0.0074219443
53	0xbd1d47ae	-0.038398437
54	0x3d96ba69	0.07359774
55	0x3d9459dd	0.072437026
56	0xbe0d3de7	-0.13793145
57	0x3e2dfb71	0.16990449
58	0xbdc47e59	-0.095944114
59	0x3cf3da42	0.02976716
60	0xbda09122	-0.07840182
61	0xbd8a7cf3	-0.067621134
62	0xbd956ca0	-0.07296109
63	0xbdfb1b2e	-0.122610435
64	0x3c836c42	0.016042832
65	0x3d7bdf92	0.06149251
66	0x3ba5aa98	0.0050557368
67	0xbd4c22a2	-0.049837716
68	0xbd8407cc	-0.064468
69	0xbe0e27b4	-0.13882333
70	0xbc0b4bb6	-0.008501938
71	0x3d4868a4	0.048927918
72	0xbddef7d2	-0.10887112
73	0xbd39be0a	-0.04534725
74	0xbe15ad3b	-0.14616863
75	0x3e0be16f	0.13660215
76	0xbe03e393	-0.12879781
77	0xbd2f8b28	-0.04285732
78	0xbdb27ccb	-0.087152086
79	0x3dbf13f9	0.09329981
80	0xbd44877a	-0.047980763
81	0x3c60ad99	0.013713264
82	0xbe3c81c2	-0.18408874
83	0xbdbc2a45	-0.0918775
84	0xbd155591	-0.036458556
85	0xbe116740	-0.14199543
86	0x3d38b6e9	0.04509631
87	0xbc9d8015	-0.019226113
88	0xbdfa16f7	-0.122114114
89	0x3e30025a	0.17188397
90	0x3ce0f30f	0.02745965
91	0x3e124d39	0.1428727
92	0x3dc7aa8d	0.09749327
93	0xbcfc20a3	-0.030777281
94	0x3e4cffa7	0.20019399
95	0x3dc7b2a7	0.09750872
96	0x3d024b80	0.031810284
97	0xbd5e9081	-0.05433703
98	0xbd800af3	-0.062520884
99	0x3d93ce96	0.072171375
100	0x3dd8409b	0.105591975
101	0xbc97e0cd	-0.01853981
102	0xbe2e363a	-0.17012873
103	0x3c135901	0.008993388
104	0x3da8f637	0.08250087
105	0x3dba4351	0.09094871
106	0xbdd1bd10	-0.10241139
107	0x3d51d31d	0.051226724
108	0x3d62662e	0.055273227
109	0x3d668330	0.056277454
110	0xbc33af62	-0.0109671075
111	0xbdcb6373	-0.09931078
112	0x3be38e87	0.006944481
113	0x3d7a1e54	0.06106408
114	0x3ce2c19e	0.027680214
115	0xbc9d9242	-0.01923478
116	0x3e11e5c4	0.14247805
117	0x3ced9841	0.029003264
118	0x3d3df254	0.04637368
119	0xbdfa70ff	-0.122285835
120	0x3da7d1e4	0.0819433
121	0xbe06e20f	-0.13172172
122	0xbd3b9d6c	-0.045804426
123	0xbdd19885	-0.10234169
124	0xbdf5d9e8	-0.12004453
125	0xbdb6ce4f	-0.08926069
126	0xbdfbc661	-0.12293697
127	0xbd23f84a	-0.04003171
128	0xbd02f449	-0.03197125
129	0x3d813909	0.06309707
130	0x3d3d7386	0.04625275
131	0xbd27cf66	-0.040969275
132	0x3c086e40	0.008327067
133	0xbd3163a9	-0.043307934
134	0x3ceecddb	0.029150894
135	0x3dc0a78a	0.094069555
136	0xbdae5bc7	-0.08513599
137	0x3da4905d	0.080353476
138	0x3d18b8f4	0.03728576
139	0xbdcb4f3f	-0.09927224
140	0x3bd32a96	0.0064442856
141	0xbd1d1ce0	-0.038357615
142	0x3bec0fa1	0.0072040115
143	0x3d2faaed	0.042887617
144	0xbe0c6b69	-0.13712849
145	0xbc904bed	-0.01761433
146	0x3dc5fd61	0.09667469
147	0xbc396bb5	-0.011317183
148	0x3dfe61e4	0.12421015
149	0x3da0ec9f	0.07857632
150	0xbd006eaa	-0.031355537
151	0x3cf62951	0.030048998
152	0xbd4074f6	-0.046986543
153	0x3da00318	0.0781309
154	0x3e0d25a1	0.13783886
155	0x3db50da1	0.0884049
156	0xbce9b8df	-0.028530536
157	0xbdc6998f	-0.09697258
158	0x3e48b853	0.19601564
159	0x3d3aa704	0.045569435
160	0xbd080bd1	-0.033214394
161	0xbe13efc8	-0.14446938
162	0x3db04659	0.08607168
163	0x3e1632d3	0.14667825
164	0xbda0c548	-0.078501284
165	0xbca13668	-0.019679263
166	0x3bb1c296	0.005424808
167	0xbd497f0b	-0.049193423
168	0xbe17be4f	-0.1481869
169	0x3c1be09f	0.009514003
170	0x3c338a6f	0.010958298
171	0xbd65b7d9	-0.056083534
172	0x3e1f223f	0.15540408
173	0xbc595837	-0.013265661
174	0xbd4a0f5f	-0.049331065
175	0x3b37e53c	0.0028060218
176	0xbdfde4e5	-0.12397174
177	0xbe2076e3	-0.15670352
178	0xbca95b8e	-0.02067354
179	0x3e020a23	0.1269918
180	0x3e666693	0.22500066
181	0xbdc181a4	-0.09448555
182	0xbd904dff	-0.070461266
183	0xbd263d6f	-0.04058593
184	0x3d01f79d	0.031730283
185	0xbdcde354	-0.10053125
186	0xbd07b287	-0.03312924
187	0xbbe26a4b	-0.0069096438
188	0xbdf52d6b	-0.119715534
189	0xbd391fd2	-0.04519636
190	0xbc43e1a4	-0.011955652
191	0xb92e0882	-0.00016597103
192	0x3d4ec7e1	0.050483588
193	0x3c50e844	0.012750689
194	0x3e26d0a9	0.16290535
195	0x3df98173	0.121828936
196	0xbdb929f8	-0.09041208
197	0xbd412d7c	-0.047162518
198	0x3c5709b8	0.013124876
199	0xbe222154	-0.15833026
200	0x3e0e1db2	0.13878515
201	0x3d203cb0	0.039120376
202	0xbe306fd6	-0.17230162
203	0xbb962a4d	-0.0045826794
204	0x3d8e60c1	0.06952048
205	0xbd8d4544	-0.06897977
206	0x3dc96777	0.098341875
207	0xbd9a9f54	-0.07549921
208	0xbd84ceda	-0.06484766
209	0xbd4b58c7	-0.04964521
210	0xbd565ad1	-0.052332703
211	0x3c2366bf	0.009973227
212	0xbe0fcbfd	-0.14042659
213	0x3d31a18d	0.043366957
214	0xbd595f73	-0.053069543
215	0xbd424d36	-0.047436915
216	0xbdffa262	-0.12482144
217	0xbd7e7cd2	-0.062130757
218	0x3e056ef5	0.13030608
219	0x3dc607ca	0.096694544
220	0xbd82903f	-0.06375169
221	0x3d7d3fd8	0.061828464
222	0xbbec64db	-0.0072141713
223	0x3d7a05db	0.06104074
224	0xbc062736	-0.00818806
225	0xbbee2d47	-0.007268581
226	0x3d2e66f9	0.04257867
227	0xbb132ea6	-0.0022458225
228	0x3dfa0827	0.12208586
229	0x3cec2bf0	0.028829545
230	0xbdc3e1f5	-0.09564582
231	0xbdd14ba2	-0.10219504
232	0xbca1041e	-0.019655284
233	0xbcd81480	-0.026376963
234	0xbca45423	-0.02005965
235	0xbd5e3c38	-0.054256648
236	0x3c487fbc	0.0122374855
237	0x3e140a0a	0.14456955
238	0x3cf29b23	0.02961499
239	0x3c1af5ff	0.009458064
240	0x3d5300c6	0.05151441
241	0x3de97f55	0.1140124
242	0x3baa76b7	0.00520214
243	0xbcb01e73	-0.021498894
244	0x3d63ecce	0.055645756
245	0xbcbc015f	-0.022949873
246	0x3dfe2eb1	0.124112494
247	0x3da78189	0.08179004
248	0xbdad20f3	-0.0845355
249	0x3d92269c	0.071362704
250	0x3dc3ca97	0.09560125
251	0xbd9f7bb1	-0.07787264
252	0xbbbfd46c	-0.00585418
253	0xbd9795fd	-0.07401655
254	0xbe35ba8d	-0.17746945
255	0x3d3812bf	0.044939753

model/conv1d_2/Conv1D f4 [32]
0	0x00000000	0.0
1	0x00000000	0.0
2	0x00000000	0.0
3	0x00000000	0.0
4	0x00000000	0.0
5	0x00000000	0.0
6	0x00000000	0.0
7	0x00000000	0.0
8	0x00000000	0.0
9	0x00000000	0.0
10	0x00000000	0.0
11	0x00000000	0.0
12	0x00000000	0.0
13	0x00000000	0.0
14	0x00000000	0.0
15	0x00000000	0.0
16	0x00000000	0.0
17	0x00000000	0.0
18	0x00000000	0.0
19	0x00000000	0.0
20	0x00000000	0.0
21	0x00000000	0.0
22	0x00000000	0.0
23	0x00000000	0.0
24	0x00000000	0.0
25	0x00000000	0.0
26	0x00000000	0.0
27	0x00000000	0.0
28	0x00000000	0.0
29	0x00000000	0.0
30	0x00000000	0.0
31	0x00000000	0.0

model/conv1d/Conv1D i1 [32, 1, 16, 26]
0	0x05	5
1	0x08	8
2	0xe6	-26
3	0x03	3
4	0xe3	-29
5	0x36	54
6	0xe6	-26
7	0x3d	61
8	0xf7	-9
9	0x00	0
10	0x04	4
11	0x3e	62
12	0x2d	45
13	0x01	1
14	0xeb	-21
15	0xe9	-23
16	0xdb	-37
17	0x1c	28
18	0xeb	-21
19	0xb3	-77
20	0xf8	-8
21	0x4f	79
22	0x0f	15
23	0xf0	-16
24	0xd7	-41
25	0xde	-34
26	0xf3	-13
27	0xf4	-12
28	0xda	-38
29	0xfd	-3
30	0xde	-34
31	0x20	32
32	0xc3	-61
33	0x2a	42
34	0xe7	-25
35	0x05	5
36	0xe2	-30
37	0x14	20
38	0x2a	42
39	0x21	33
40	0xee	-18
41	0xee	-18
42	0xdf	-33
43	0x06	6
44	0xe9	-23
45	0xe6	-26
46	0xf3	-13
47	0x23	35
48	0x09	9
49	0xd8	-40
50	0x0f	15
51	0xe9	-23
52	0x0d	13
53	0xf1	-15
54	0xd6	-42
55	0x05	5
56	0xe7	-25
57	0x23	35
58	0xcc	-52
59	0x2c	44
60	0x14	20
61	0x28	40
62	0xdc	-36
63	0x34	52
64	0x1b	27
65	0x1d	29
66	0x06	6
67	0x13	19
68	0xfe	-2
69	0x28	40
70	0xf6	-10
71	0xcb	-53
72	0xcc	-52
73	0x03	3
74	0x05	5
75	0xe2	-30
76	0xe2	-30
77	0xeb	-21
78	0xfd	-3
79	0xe9	-23
80	0xe4	-28
81	0x0b	11
82	0x04	4
83	0x19	25
84	0xdb	-37
85	0x2b	43
86	0xdc	-36
87	0xf2	-14
88	0xc5	-59
89	0x1e	30
90	0xee	-18
91	0x1c	28
92	0x14	20
93	0xf6	-10
94	0xfc	-4
95	0x01	1
96	0xd5	-43
97	0xdd	-35
98	0xe8	-24
99	0xdd	-35
100	0xe5	-27
101	0xdc	-36
102	0x18	24
103	0xf7	-9
104	0x05	5
105	0xf4	-12
106	0xe9	-23
107	0x0f	15
108	0xee	-18
109	0x15	21
110	0xd9	-39
111	0x17	23
112	0xcf	-49
113	0xed	-19
114	0xed	-19
115	0x40	64
116	0x20	32
117	0x16	22
118	0x14	20
119	0x1a	26
120	0xf6	-10
121	0x1f	31
122	0x05	5
123	0xe0	-32
124	0xf6	-10
125	0x01	1
126	0xf7	-9
127	0xed	-19
128	0x32	50
129	0xd3	-45
130	0x00	0
131	0x04	4
132	0xe8	-24
133	0x12	18
134	0xe6	-26
135	0x0d	13
136	0xe2	-30
137	0x12	18
138	0xda	-38
139	0x14	20
140	0xdd	-35
141	0x2d	45
142	0x07	7
143	0x25	37
144	0x03	3
145	0x0d	13
146	0x00	0
147	0x0f	15
148	0xe6	-26
149	0xff	-1
150	0xe8	-24
151	0xff	-1
152	0x0d	13
153	0xe9	-23
154	0x1a	26
155	0xfe	-2
156	0x17	23
157	0xf0	-16
158	0xe3	-29
159	0x08	8
160	0xfa	-6
161	0xff	-1
162	0xd0	-48
163	0xfb	-5
164	0xca	-54
165	0x2a	42
166	0xee	-18
167	0x3e	62
168	0xf8	-8
169	0x15	21
170	0x19	25
171	0x33	51
172	0xe3	-29
173	0x1d	29
174	0xf0	-16
175	0xd5	-43
176	0xca	-54
177	0x10	16
178	0x20	32
179	0xff	-1
180	0x11	17
181	0xfe	-2
182	0x18	24
183	0xfd	-3
184	0xdf	-33
185	0x19	25
186	0xf0	-16
187	0x08	8
188	0xe0	-32
189	0x1d	29
190	0xfe	-2
191	0xf9	-7
192	0xe7	-25
193	0x09	9
194	0xd3	-45
195	0x1a	26
196	0xfb	-5
197	0x23	35
198	0xe5	-27
199	0x08	8
200	0xfc	-4
201	0x00	0
202	0xf0	-16
203	0x16	22
204	0x27	39
205	0x1b	27
206	0x48	72
207	0x35	53
208	0x0d	13
209	0xf7	-9
210	0xeb	-21
211	0x07	7
212	0xea	-22
213	0xfd	-3
214	0xd9	-39
215	0x22	34
216	0xff	-1
217	0x27	39
218	0xf4	-12
219	0x41	65
220	0xf0	-16
221	0xf6	-10
222	0x07	7
223	0x22	34
224	0xeb	-21
225	0xfd	-3
226	0xfe	-2
227	0xf7	-9
228	0xe5	-27
229	0x04	4
230	0x29	41
231	0x13	19
232	0x46	70
233	0x19	25
234	0x15	21
235	0x05	5
236	0xe8	-24
237	0x15	21
238	0xe8	-24
239	0x03	3
240	0xe8	-24
241	0x10	16
242	0x15	21
243	0x37	55
244	0x01	1
245	0x31	49
246	0x01	1
247	0x0d	13
248	0x06	6
249	0x27	39
250	0xe5	-27
251	0xff	-1
252	0xf8	-8
253	0x00	0
254	0x0e	14
255	0x05	5

model/conv1d_1/Conv1D i1 [32, 1, 16, 32]
0	0x9d	-99
1	0xe0	-32
2	0xff	-1
3	0xc1	-63
4	0x1e	30
5	0xfc	-4
6	0xb8	-72
7	0xfd	-3
8	0xb3	-77
9	0xf1	-15
10	0xb8	-72
11	0xe2	-30
12	0x12	18
13	0xe0	-32
14	0xf2	-14
15	0x33	51
16	0xe2	-30
17	0xde	-34
18	0x83	-125
19	0x0a	10
20	0xef	-17
21	0x13	19
22	0x12	18
23	0xf2	-14
24	0xdb	-37
25	0xe8	-24
26	0xfc	-4
27	0x10	16
28	0xca	-54
29	0xb9	-71
30	0xe9	-23
31	0xfc	-4
32	0xb1	-79
33	0xe9	-23
34	0x02	2
35	0x14	20
36	0xf9	-7
37	0x13	19
38	0xf0	-16
39	0x06	6
40	0x0f	15
41	0xe7	-25
42	0xec	-20
43	0xb0	-80
44	0x37	55
45	0x1a	26
46	0x07	7
47	0x00	0
48	0xfd	-3
49	0x61	97
50	0xca	-54
51	0xd1	-47
52	0xf3	-13
53	0xe0	-32
54	0xfa	-6
55	0xc1	-63
56	0x38	56
57	0x0d	13
58	0x12	18
59	0xc8	-56
60	0xc7	-57
61	0x9f	-97
62	0xdc	-36
63	0x11	17
64	0xdc	-36
65	0x07	7
66	0xf3	-13
67	0xdb	-37
68	0xf2	-14
69	0x44	68
70	0x1f	31
71	0x0e	14
72	0x22	34
73	0x11	17
74	0xf8	-8
75	0x9c	-100
76	0x1c	28
77	0xec	-20
78	0x12	18
79	0x17	23
80	0xf2	-14
81	0x07	7
82	0x06	6
83	0xfc	-4
84	0x00	0
85	0x04	4
86	0x22	34
87	0xc3	-61
88	0xfe	-2
89	0xb3	-77
90	0x01	1
91	0xb5	-75
92	0xd5	-43
93	0xd4	-44
94	0x1a	26
95	0x03	3
96	0xd6	-42
97	0x30	48
98	0x25	37
99	0xef	-17
100	0x2a	42
101	0x13	19
102	0xe2	-30
103	0x2e	46
104	0x2e	46
105	0xe1	-31
106	0x0d	13
107	0x83	-125
108	0xf9	-7
109	0xbd	-67
110	0x24	36
111	0x30	48
112	0xbe	-66
113	0xe2	-30
114	0xa5	-91
115	0x2f	47
116	0x12	18
117	0x07	7
118	0x2b	43
119	0x93	-109
120	0x3f	63
121	0xc9	-55
122	0x02	2
123	0xd6	-42
124	0xd2	-46
125	0xa4	-92
126	0x17	23
127	0xae	-82
128	0xec	-20
129	0xf4	-12
130	0x04	4
131	0xe5	-27
132	0x1d	29
133	0x35	53
134	0x03	3
135	0xf1	-15
136	0xf9	-7
137	0xf3	-13
138	0xf5	-11
139	0xa8	-88
140	0xff	-1
141	0x44	68
142	0xeb	-21
143	0x02	2
144	0xa3	-93
145	0x26	38
146	0xd6	-42
147	0x26	38
148	0xf8	-8
149	0xe7	-25
150	0x1d	29
151	0xa5	-91
152	0x17	23
153	0xd7	-41
154	0xf6	-10
155	0x9a	-102
156	0x0d	13
157	0xd1	-47
158	0x10	16
159	0x0b	11
160	0xcd	-51
161	0xeb	-21
162	0xd0	-48
163	0xc0	-64
164	0x1c	28
165	0x15	21
166	0x0a	10
167	0xe2	-30
168	0x05	5
169	0x25	37
170	0xb9	-71
171	0x99	-103
172	0xd7	-41
173	0x09	9
174	0xbb	-69
175	0xeb	-21
176	0xff	-1
177	0xe8	-24
178	0xe3	-29
179	0x04	4
180	0x11	17
181	0xc4	-60
182	0x01	1
183	0xe0	-32
184	0xed	-19
185	0xb8	-72
186	0xf6	-10
187	0xd3	-45
188	0x07	7
189	0xc5	-59
190	0x20	32
191	0xbc	-68
192	0xb3	-77
193	0xc2	-62
194	0xd6	-42
195	0xc9	-55
196	0x02	2
197	0x39	57
198	0x5c	92
199	0x03	3
200	0xf0	-16
201	0xfa	-6
202	0x92	-110
203	0xab	-85
204	0xd3	-45
205	0xd9	-39
206	0xe6	-26
207	0xf9	-7
208	0xb5	-75
209	0xec	-20
210	0xca	-54
211	0x10	16
212	0x15	21
213	0xdf	-33
214	0x29	41
215	0xcf	-49
216	0xe1	-31
217	0xdd	-35
218	0x0a	10
219	0x20	32
220	0xfc	-4
221	0xbd	-67
222	0x14	20
223	0xd1	-47
224	0xd3	-45
225	0x09	9
226	0x12	18
227	0x01	1
228	0xf3	-13
229	0x08	8
230	0x46	70
231	0xea	-22
232	0x0a	10
233	0xff	-1
234	0xd6	-42
235	0xd9	-39
236	0xc0	-64
237	0xcc	-52
238	0x1c	28
239	0x04	4
240	0xc9	-55
241	0xca	-54
242	0x96	-106
243	0x14	20
244	0x2d	45
245	0xed	-19
246	0x17	23
247	0xd0	-48
248	0xb0	-80
249	0xde	-34
250	0xc0	-64
251	0x26	38
252	0x25	37
253	0xe4	-28
254	0x12	18
255	0xcc	-52

model/conv1d_2/Conv1D1 i1 [32, 1, 16, 32]
0	0xc1	-63
1	0xf8	-8
2	0xe9	-23
3	0x1d	29
4	0x28	40
5	0xf6	-10
6	0x33	51
7	0x2f	47
8	0xec	-20
9	0x07	7
10	0xfa	-6
11	0xd6	-42
12	0xea	-22
13	0x40	64
14	0x47	71
15	0xd1	-47
16	0x28	40
17	0xfe	-2
18	0x3e	62
19	0x0e	14
20	0x2b	43
21	0xbf	-65
22	0xe5	-27
23	0x02	2
24	0xbb	-69
25	0xdd	-35
26	0xf3	-13
27	0xcf	-49
28	0xfa	-6
29	0x05	5
30	0xc6	-58
31	0xe8	-24
32	0xc7	-57
33	0xd2	-46
34	0x13	19
35	0x07	7
36	0x0a	10
37	0x11	17
38	0x9f	-97
39	0x2d	45
40	0xf2	-14
41	0xdb	-37
42	0xf8	-8
43	0xd2	-46
44	0x02	2
45	0xda	-38
46	0x28	40
47	0x20	32
48	0x0e	14
49	0x06	6
50	0xe8	-24
51	0xe6	-26
52	0x16	22
53	0x0d	13
54	0xd6	-42
55	0x0f	15
56	0xd7	-41
57	0xa0	-96
58	0xdd	-35
59	0xc2	-62
60	0x34	52
61	0x27	39
62	0xe9	-23
63	0xd0	-48
64	0xce	-50
65	0xde	-34
66	0x51	81
67	0x2a	42
68	0x08	8
69	0xdb	-37
70	0x07	7
71	0xc1	-63
72	0x09	9
73	0xa1	-95
74	0xe3	-29
75	0xe0	-32
76	0xdb	-37
77	0xf5	-11
78	0xe8	-24
79	0xe0	-32
80	0x27	39
81	0x13	19
82	0xcd	-51
83	0xca	-54
84	0xf7	-9
85	0x27	39
86	0xc8	-56
87	0xe2	-30
88	0xbc	-68
89	0xcc	-52
90	0xfb	-5
91	0x93	-109
92	0xfb	-5
93	0x4a	74
94	0xdc	-36
95	0xe9	-23
96	0x00	0
97	0x9b	-101
98	0x02	2
99	0x21	33
100	0xee	-18
101	0x18	24
102	0x2a	42
103	0x11	17
104	0xb8	-72
105	0xbb	-69
106	0xe9	-23
107	0x04	4
108	0xfc	-4
109	0x41	65
110	0xbc	-68
111	0xc6	-58
112	0x28	40
113	0xde	-34
114	0xba	-70
115	0x43	67
116	0x01	1
117	0x2d	45
118	0xd5	-43
119	0x00	0
120	0x09	9
121	0xf0	-16
122	0x22	34
123	0x35	53
124	0x81	-127
125	0xec	-20
126	0x21	33
127	0x21	33
128	0xf9	-7
129	0xad	-83
130	0xf0	-16
131	0xa3	-93
132	0x07	7
133	0x3a	58
134	0xe5	-27
135	0xe2	-30
136	0xee	-18
137	0x0d	13
138	0xd7	-41
139	0xdf	-33
140	0xb8	-72
141	0x6d	109
142	0x18	24
143	0x11	17
144	0x24	36
145	0xd1	-47
146	0xe1	-31
147	0x9d	-99
148	0xe8	-24
149	0xfe	-2
150	0xd8	-40
151	0xbf	-65
152	0xe0	-32
153	0xc1	-63
154	0x05	5
155	0x14	20
156	0xec	-20
157	0xc8	-56
158	0x19	25
159	0xd4	-44
160	0x07	7
161	0xdc	-36
162	0x0a	10
163	0xc3	-61
164	0x00	0
165	0xe8	-24
166	0xe7	-25
167	0x0e	14
168	0xf8	-8
169	0xf8	-8
170	0x40	64
171	0xdd	-35
172	0x13	19
173	0xdf	-33
174	0x0f	15
175	0xfb	-5
176	0xcd	-51
177	0x0b	11
178	0xe7	-25
179	0x12	18
180	0xdb	-37
181	0xd7	-41
182	0xec	-20
183	0xe6	-26
184	0xd8	-40
185	0xd1	-47
186	0xe8	-24
187	0xf0	-16
188	0x0b	11
189	0xf8	-8
190	0xd9	-39
191	0xef	-17
192	0xc7	-57
193	0x1e	30
194	0x4c	76
195	0x25	37
196	0xe3	-29
197	0xe2	-30
198	0xef	-17
199	0xd8	-40
200	0x41	65
201	0x03	3
202	0x11	17
203	0xf5	-11
204	0xcc	-52
205	0x25	37
206	0x26	38
207	0x49	73
208	0x24	36
209	0x25	37
210	0x9d	-99
211	0xec	-20
212	0xf4	-12
213	0x14	20
214	0xe9	-23
215	0xa8	-88
216	0xcf	-49
217	0xb1	-79
218	0xdd	-35
219	0xea	-22
220	0x29	41
221	0xca	-54
222	0xc9	-55
223	0x0c	12
224	0xfd	-3
225	0xdd	-35
226	0x34	52
227	0xee	-18
228	0x20	32
229	0xb9	-71
230	0xc9	-55
231	0xfa	-6
232	0xd9	-39
233	0x02	2
234	0xe8	-24
235	0xe2	-30
236	0xd9	-39
237	0x1c	28
238	0xf6	-10
239	0x00	0
240	0x24	36
241	0x0a	10
242	0x0b	11
243	0xd4	-44
244	0x05	5
245	0xdb	-37
246	0xcd	-51
247	0xd8	-40
248	0xe7	-25
249	0xe0	-32
250	0xf2	-14
251	0xd9	-39
252	0x27	39
253	0xf3	-13
254	0x18	24
255	0x05	5
